Phase2/model_.ckpt (torch, 271721 bytes, 18 tensors)

layer1.weight f4 [128, 39]
0	0x3e49ae5b	0.19695418
1	0xbccb6d41	-0.02483237
2	0xbe12c52d	-0.14333029
3	0x3dc3003f	0.09521531
4	0xbe2668f5	-0.16250975
5	0x3c255c29	0.0100927735
6	0xbe184af9	-0.1487235
7	0x3d493a2c	0.049127743
8	0xbd076f54	-0.033065155
9	0xbc9c39a0	-0.019070446
10	0xbe564372	-0.20924166
11	0xbd762992	-0.06009824
12	0xbec426bb	-0.383108
13	0x3e597d5c	0.21239227
14	0xbd5233dd	-0.051318992
15	0xbdebd05a	-0.11514349
16	0x3dc7b9f2	0.09752263
17	0xbe458466	-0.19288787
18	0xbeabcef1	-0.3355632
19	0xbe12e84a	-0.14346424
20	0xbec8fa66	-0.3925354
21	0x3dc1c19e	0.09460758
22	0x3dac8cb3	0.08425274
23	0x3ebd2c2a	0.36947757
24	0x3e35cbbb	0.17753498
25	0xbebb08fc	-0.36530292
26	0x3e4a4a76	0.19754967
27	0xbd979eaf	-0.07403313
28	0xbe13a617	-0.14418827
29	0x3dbb27cc	0.0913845
30	0xbde24ce8	-0.11049825
31	0x3e3722eb	0.17884414
32	0x3dbfafa0	0.0935967
33	0xbdff0690	-0.124524236
34	0x3dcbd814	0.09953323
35	0xbe16b1f3	-0.1471632
36	0x3e771db4	0.24132425
37	0xbe32e6ab	-0.17470805
38	0xbb13246e	-0.0022452134
39	0x3d92faf9	0.071767755
40	0x3e2423df	0.16029309
41	0xbe9a8389	-0.30178478
42	0x3df65b91	0.12029184
43	0xbe342437	-0.1759194
44	0xbe99c712	-0.3003469
45	0xbe55c111	-0.2087443
46	0xbe961649	-0.29313877
47	0x3de942c5	0.113896884
48	0x3cccb9d0	0.024990946
49	0xbeca5ef4	-0.39525568
50	0xbeaf64a4	-0.3425647
51	0xbe39e9c6	-0.18155584
52	0xbe299a49	-0.16562761
53	0xbd4b09d5	-0.049569923
54	0x3c363007	0.011119849
55	0x3dd53e9e	0.10412334
56	0x3d7c3992	0.06157834
57	0xbeb81c1f	-0.35958955
58	0x3dc27d9c	0.09496614
59	0xbeadeccc	-0.33969724
60	0xbd807ec7	-0.06274181
61	0x3db4ce6c	0.08828434
62	0x3e87747f	0.26456067
63	0x3ec1ea3c	0.3787402
64	0x3dbcac1f	0.09212517
65	0xbe928e7b	-0.2862433
66	0x3e6644a6	0.22487125
67	0x3dd33bc7	0.10314136
68	0x3dcaea02	0.09907915
69	0xbe28b6cd	-0.16475983
70	0xbd2208c4	-0.03955914
71	0x3ca6966d	0.0203354
72	0xbdfdc884	-0.12391761
73	0x3cbdc297	0.023164077
74	0xbe924f21	-0.28575996
75	0x3e364a1c	0.17801708
76	0xbcaa0399	-0.020753669
77	0x3e63730f	0.2221186
78	0xbd884b65	-0.06655005
79	0xbdba0557	-0.0908305
80	0x3e7f4b5f	0.24931096
81	0xbe548450	-0.20753598
82	0xbdff0e8e	-0.12453948
83	0x3e252ce8	0.16130412
84	0xbdd9c198	-0.10632628
85	0xbdab1507	-0.0835362
86	0xbc3d0a6c	-0.011538129
87	0xbe0ca3d6	-0.13734373
88	0x3d1c8ed5	0.038222153
89	0x3cc4186d	0.023937428
90	0xbea6c2fa	-0.3257063
91	0x3da31c8b	0.079644285
92	0xbe03cc21	-0.12870838
93	0x3e663889	0.22482504
94	0xbde52ebc	-0.111905545
95	0x3edf7c2b	0.4364942
96	0xbeb649ff	-0.3560333
97	0xbe354f24	-0.17705971
98	0x3e9acf68	0.30236363
99	0xb9f86670	-0.00047378568
100	0x3dd1adc8	0.10238224
101	0xbde8723f	-0.11349916
102	0x3e143fe4	0.14477497
103	0xbbd42a4e	-0.0064747697
104	0xbe935a18	-0.28779674
105	0x3cd5479b	0.02603512
106	0xbda289d0	-0.07936442
107	0x3e0a738e	0.13520643
108	0x3e2a33a3	0.1662126
109	0x3d5e7085	0.054306526
110	0x3e050c51	0.1299298
111	0x3d073804	0.033012405
112	0x3c145071	0.009052382
113	0xbd4e08a3	-0.050301205
114	0xbe400ea8	-0.18755591
115	0xbcd480ab	-0.02594026
116	0xbcd8229b	-0.026383689
117	0xbdd81e4f	-0.10552656
118	0x3de8ece9	0.11373312
119	0xbcfd0ada	-0.030888963
120	0xbe09be54	-0.1345151
121	0x3e1efc65	0.15525968
122	0x3e4c25f0	0.19936347
123	0xbd7102a7	-0.05884042
124	0xbd50e720	-0.051001668
125	0xbe50272a	-0.2032744
126	0xbea076af	-0.31340548
127	0x3e132249	0.14368547
128	0x3e4a8e94	0.19780952
129	0xbe8fb5aa	-0.28068286
130	0xbe4d8f59	-0.20074214
131	0xbeac8796	-0.33697194
132	0xbe72ca59	-0.23710002
133	0xbe830a97	-0.25594017
134	0x3eef9696	0.46794575
135	0xbee27965	-0.44233242
136	0xbdce4fa1	-0.10073782
137	0xbe115a1c	-0.1419453
138	0x3e8c2b5e	0.27376837
139	0x3df3ccf7	0.11904328
140	0x3e688388	0.22706425
141	0xbe9328a5	-0.28741947
142	0xbed3670e	-0.41289562
143	0x3e8803b8	0.26565337
144	0xbec0df04	-0.37670147
145	0x3d9ac616	0.07557313
146	0xbebe7141	-0.3719578
147	0xbe24bfc6	-0.16088781
148	0x3d8bc4b9	0.06824631
149	0x3d2ae1a9	0.041719113
150	0xbe4b98e5	-0.19882543
151	0x3dd05dc4	0.101741344
152	0xbc3c3bfa	-0.011488909
153	0x3de1cf4b	0.11025866
154	0xbc7b78a6	-0.015348589
155	0x3bcc5fc2	0.006237001
156	0xbe349382	-0.17634395
157	0x3ce6026d	0.028077329
158	0xba33cd46	-0.0006858896
159	0xbde371aa	-0.11105664
160	0x3e10c6f1	0.1413839
161	0x3dd33a2a	0.10313828
162	0x3d3eba8b	0.04656462
163	0xbe5fcdd0	-0.21855855
164	0xbca6af5f	-0.020347295
165	0x3d8841d4	0.06653181
166	0x3c6f6378	0.014611118
167	0x3d11d0d0	0.03559953
168	0xbea55788	-0.32293344
169	0xbd46e37a	-0.048556782
170	0xbe6fbc51	-0.23411681
171	0x3e3a082e	0.18167183
172	0xbdafb267	-0.085789494
173	0x3c313a9a	0.010817194
174	0xbeb6d471	-0.35708955
175	0xbde80f8d	-0.11331091
176	0xbe2aef3b	-0.16692822
177	0xbe868b2d	-0.26278058
178	0xbe5a6f99	-0.21331634
179	0x3efaa606	0.4895479
180	0xbe2f9431	-0.17146374
181	0x3e7e6fd2	0.24847344
182	0x3e5fc4fa	0.21852484
183	0x3e8f8a0b	0.28035006
184	0xbc3f0fd4	-0.011661489
185	0x3c3fa914	0.011698026
186	0xbd67e230	-0.056612194
187	0x3e85fdb6	0.2617013
188	0xbeb70511	-0.35746053
189	0xbd83fb80	-0.06444454
190	0x3e1ab93a	0.15109721
191	0xbd52a311	-0.051425043
192	0xbe58bd0e	-0.21165869
193	0xbe17be9c	-0.14818805
194	0xbdb664de	-0.08905958
195	0x3e9c1ac7	0.3048918
196	0x3e9c3b54	0.30514014
197	0xbdda09c1	-0.10646392
198	0x3e6e6fdf	0.23284863
199	0x3e5b5187	0.21417819
200	0xbd70fbdf	-0.058833953
201	0x3d18bf13	0.037291598
202	0xbe460d4d	-0.19341011
203	0x3d8bd6ed	0.06828103
204	0x3d386c4d	0.04502516
205	0xbe7e083d	-0.2480783
206	0x3d6d81b7	0.057985034
207	0xbe879363	-0.26479635
208	0xbe24a8c1	-0.1608
209	0xbd5616b3	-0.05226774
210	0xbea390f6	-0.31946534
211	0xbe6809eb	-0.22660033
212	0x3b009016	0.0019617132
213	0xbd912baa	-0.070884064
214	0x3ec01a0e	0.37519878
215	0xbeab3d0d	-0.33445016
216	0x3e305bd3	0.17222528
217	0x3d894d62	0.06704213
218	0xbdb13c1d	-0.08654044
219	0x3e43f956	0.19138083
220	0xbe0d75f9	-0.13814534
221	0x3bc8bccd	0.0061260224
222	0x3ddb85bb	0.107188664
223	0x3ea6db05	0.32588974
224	0x3cb79108	0.022408023
225	0x3e8e3878	0.27777457
226	0xbdb58f6c	-0.08865246
227	0x3e3cb9c7	0.18430243
228	0xbca45c9c	-0.02006369
229	0x3db475e7	0.088115506
230	0x3d95e597	0.073191814
231	0xbbfbd737	-0.0076855677
232	0x3d8fad46	0.07015471
233	0x3e2957aa	0.16537347
234	0x3d05eeb0	0.032698333
235	0xbebc9a94	-0.36836684
236	0xbe4205ee	-0.18947574
237	0xbd12c80c	-0.03583531
238	0xbd97a582	-0.07404615
239	0xbe03a539	-0.12855996
240	0xbe38ee45	-0.18059643
241	0xbddcabe9	-0.10774977
242	0x3ccc9568	0.024973586
243	0xbd074f36	-0.033034526
244	0x3e92c18a	0.28663284
245	0xbeb341a1	-0.35011008
246	0xbd3d2b47	-0.04618385
247	0xbe3b0443	-0.18263344
248	0xbe8277d2	-0.2548204
249	0xbb5dd124	-0.0033846581
250	0x3e0a033e	0.134778
251	0xbda2806f	-0.07934653
252	0x3e8de7b4	0.27715838
253	0x3e8c6d1d	0.27426997
254	0xbe8ee816	-0.27911443
255	0xbca12cf3	-0.019674754

layer1.bias f4 [128]
0	0x3cbc475d	0.022983247
1	0x3d21ad8e	0.039472155
2	0x3e2dbf12	0.16967419
3	0xbdeda572	-0.11603822
4	0xbdbc3d09	-0.09191329
5	0xbd8da0db	-0.06915446
6	0xbc5abd28	-0.013350762
7	0xbd8745db	-0.06605121
8	0xbddb9a7a	-0.107228234
9	0xbe7c14bc	-0.24617285
10	0xbdc85180	-0.0978117
11	0xbe30dfcd	-0.17272873
12	0xbe53fc84	-0.20701796
13	0x3e030407	0.12794505
14	0xbcd6620e	-0.026169803
15	0x3d0b3128	0.033982426
16	0xbcde88da	-0.027164865
17	0xbc533cf7	-0.012892953
18	0xbe29a0d4	-0.16565257
19	0xbdc8d3f9	-0.098060556
20	0xbd9fbbc8	-0.07799488
21	0x3e22ec43	0.15910439
22	0x3d0d7ab5	0.03454085
23	0xbd14dbf1	-0.036342565
24	0xbe058c7e	-0.13041875
25	0x3e20f8d0	0.15719914
26	0x3dc6a38f	0.09699165
27	0x3d88feeb	0.06689247
28	0x3d328687	0.043585327
29	0x3cd44283	0.025910622
30	0xbdc33bed	-0.09532914
31	0xbe0a0e94	-0.13482124
32	0xbdfab213	-0.12240996
33	0x3cba48c7	0.022739781
34	0xbd203d5b	-0.039121013
35	0xbdbbee32	-0.091762915
36	0x3c7f0ea6	0.015567457
37	0x3d87f6d3	0.06638875
38	0xbd2138d5	-0.03936084
39	0xbe0a3d70	-0.13499999
40	0xbdaa7f45	-0.08325056
41	0x3b94dc41	0.004542858
42	0xbc770779	-0.015077465
43	0x3db66e5d	0.08907769
44	0x3c3454ec	0.011006575
45	0xbe4d25f6	-0.20034012
46	0xbd7b6d89	-0.061383758
47	0x3d8820ce	0.06646882
48	0x3c14c15b	0.009079303
49	0xbd10e43e	-0.03537392
50	0xbe25c2b2	-0.16187552
51	0x3c908442	0.01764119
52	0x3d8f4b14	0.06996742
53	0x3c8079a7	0.015683008
54	0xbd8892be	-0.06668614
55	0xbdbfb07a	-0.09359832
56	0xbd04cf5c	-0.032424316
57	0xbdb514ff	-0.08841895
58	0xbe202468	-0.15638888
59	0x3cd1f10c	0.025627635
60	0x3d7154e8	0.058918864
61	0x3d2860e8	0.041108042
62	0xbe541cd9	-0.2071413
63	0xbe23245c	-0.15931839
64	0xbd0760f8	-0.03305146
65	0x3dc84669	0.09779055
66	0xbd4953d7	-0.04915222
67	0x3e0c9fe4	0.13732868
68	0xbd98614b	-0.07440432
69	0xbdd1a079	-0.10235686
70	0xbe587553	-0.21138506
71	0xbdd6d2bf	-0.104894154
72	0xbdabd629	-0.08390457
73	0xbdeabb6c	-0.11461529
74	0xbd10bf4e	-0.035338692
75	0xbe121438	-0.14265525
76	0xbe8b9a7e	-0.27266306
77	0xbe5f0574	-0.21779424
78	0xbdf1a0fc	-0.117982835
79	0xbe8ce28e	-0.27516598
80	0xbb85bc13	-0.004081258
81	0xbe43ea5c	-0.1913237
82	0xbd3e5ce4	-0.046475306
83	0xbe9249a8	-0.2857182
84	0x3d28f22c	0.041246578
85	0xbcaeadbb	-0.021323076
86	0x3dc45f4c	0.09588489
87	0xbe6b43db	-0.22975104
88	0xbdf943ba	-0.12171121
89	0xbe2e9f8d	-0.17053051
90	0x3e1a2049	0.15051378
91	0xbd8064a8	-0.06269199
92	0xbe01bdaf	-0.12670015
93	0x3dc3b68c	0.095563024
94	0x3c8e3409	0.017358797
95	0xbe8a8a2f	-0.2705855
96	0xbe2be8dc	-0.16788048
97	0xbe0178b7	-0.12643705
98	0xbe669315	-0.22517045
99	0xbdb098bb	-0.08622881
100	0xbdf1d11e	-0.11807464
101	0xbe8eaab1	-0.27864602
102	0xbe090370	-0.13380218
103	0xbd237354	-0.039904907
104	0xbdc0112f	-0.093782775
105	0xbc9383a0	-0.0180071
106	0x3de3d415	0.11124436
107	0x3de30548	0.11084992
108	0xbe229a53	-0.15879183
109	0x3da8ef7a	0.082488015
110	0xbe5e9d64	-0.21739727
111	0x3ce1846c	0.027528964
112	0xbe292771	-0.16518952
113	0x3d4b18fb	0.04958437
114	0xbcc4b16c	-0.024010383
115	0xbc3a4139	-0.011368089
116	0xbc3ca26d	-0.011513335
117	0x3e083d99	0.13304748
118	0xbe06e13d	-0.13171859
119	0x3b2c8672	0.0026325253
120	0x3e2a070c	0.1660425
121	0x3e0e1230	0.13874125
122	0xbe985a2a	-0.2975629
123	0xbe5cdc91	-0.21568514
124	0x3aff6b7b	0.0019486988
125	0x3dada300	0.084783554
126	0xbd908712	-0.070570126
127	0x3d8809f3	0.06642523

layer2.weight f4 [128, 128]
0	0x3cefb343	0.029260283
1	0xbc2384d3	-0.009980398
2	0x3dfcdb37	0.123464994
3	0x3e13c417	0.14430271
4	0x3d0c5477	0.03426024
5	0x3d885df0	0.06658542
6	0x3dc2e55f	0.09516405
7	0x3e30fb62	0.17283395
8	0x3b7861de	0.003790013
9	0xbd13959d	-0.036031354
10	0x3d5004bd	0.05078577
11	0x3e06eb76	0.13175759
12	0x3e17cccf	0.14824222
13	0x3e051a86	0.12998399
14	0x3e0bc05d	0.136476
15	0xbce07045	-0.027397284
16	0x3d8cb737	0.06870883
17	0x3c425f8e	0.011863602
18	0x3dab89a6	0.08375864
19	0x3cd6e887	0.026233925
20	0xbc7d5bf0	-0.015463814
21	0x3e438ebb	0.19097416
22	0x3dbfb69c	0.09361002
23	0x3dbea17d	0.09308145
24	0x3e212197	0.1573547
25	0x3df34157	0.11877697
26	0x3dc2ddd3	0.09514966
27	0x3dba6b23	0.09102466
28	0x3df77cc2	0.120843425
29	0x3de2fdaa	0.11083539
30	0xbc850017	-0.016235394
31	0x3d8b9697	0.06815832
32	0x3df8665f	0.12128901
33	0x3e54b276	0.20771202
34	0x3da848ee	0.08217035
35	0x3e92739a	0.28603822
36	0x3d44645f	0.047947284
37	0x3ba43272	0.0050108964
38	0x3d94b466	0.07260971
39	0x3d9d67fc	0.07685849
40	0x3e115bc5	0.14195164
41	0x3e0bd7e3	0.13656573
42	0x3e1ec714	0.1550563
43	0x3d159c53	0.036526036
44	0xbd063ede	-0.0327748
45	0x3dd26f81	0.10275174
46	0x3db47e94	0.08813205
47	0x3e228f4f	0.1587498
48	0xbd75fca9	-0.06005541
49	0xbd0f7ac1	-0.035029177
50	0x3c9d30a2	0.019188229
51	0x3e1a23ce	0.15052721
52	0x3d863124	0.065523416
53	0xbc7c50cc	-0.015400123
54	0x3e13945f	0.14412068
55	0x3da21706	0.079145476
56	0x3d8323d8	0.06403321
57	0x3d42a416	0.047519766
58	0x3e008255	0.12549718
59	0x3c61c2e4	0.013779376
60	0x3e0c4d00	0.13701248
61	0x3df14de1	0.11782432
62	0x3e22e8f7	0.15909182
63	0x3df07210	0.11740506
64	0x3dfbed4c	0.1230112
65	0x3d744f0c	0.059645697
66	0x3d45ebc1	0.048320536
67	0x3e18bffe	0.14916989
68	0x3e34a04e	0.17639276
69	0x3d800d9c	0.06252596
70	0x3dc0c6e8	0.09412938
71	0x3b74d4c5	0.0037358266
72	0xbdaa25db	-0.083080016
73	0x3e44753c	0.19185346
74	0x3e07c6e1	0.1325946
75	0x3e40944b	0.1880657
76	0xbd3202c3	-0.043459665
77	0x3dfdf2e5	0.12399844
78	0x3de2419d	0.11047671
79	0x3d7d2eaf	0.0618121
80	0xbb72abcf	-0.0037028675
81	0x3df5fd45	0.12011198
82	0x3d96657c	0.07343575
83	0x3c87e2df	0.016587673
84	0x3b7214b3	0.0036938607
85	0xbd79ace5	-0.0609559
86	0x3de1fbab	0.1103433
87	0x3e32f58b	0.1747648
88	0x3e0ffd0c	0.14061373
89	0x3ca3c594	0.019991674
90	0x3e2a0c95	0.16606362
91	0xbda2a6a4	-0.079419404
92	0x3dcba6b3	0.09943905
93	0x3c5032ad	0.012707395
94	0x3df51711	0.1196729
95	0x3e0bd91b	0.13657038
96	0xbce32ab0	-0.027730316
97	0x3d9b42d4	0.07581106
98	0x3cd8ee8d	0.026480937
99	0x3d9a377b	0.07530113
100	0x3e0404bf	0.12892435
101	0xbb9685be	-0.00459358
102	0x3e0fa0e8	0.14026225
103	0xbd394ea8	-0.045241028
104	0x3c813b3a	0.015775312
105	0x3c9e32cf	0.019311337
106	0x3e02f715	0.12789567
107	0x3e2b500c	0.16729754
108	0x3dd0817f	0.101809494
109	0x3da3b0b6	0.07992689
110	0x3d5ad84a	0.053428926
111	0x3e3d32ac	0.18476361
112	0x3d0d9ab1	0.034571353
113	0x3e1b4a0f	0.1516497
114	0x3c8b2c30	0.016988844
115	0xbcaa2c94	-0.02077321
116	0x3d9234d2	0.07138981
117	0x3d7ff1fe	0.06248664
118	0x3ddff779	0.109358735
119	0x3e09a33e	0.13441178
120	0xbb1897ca	-0.0023283833
121	0x3d9fcf21	0.078031786
122	0x3d96d022	0.07363917
123	0x3dc8fd7a	0.09813972
124	0xbd3ff7fd	-0.04686736
125	0x3e0d1d2c	0.1378066
126	0x3e4c9d10	0.1998179
127	0xbbad20b5	-0.00528344
128	0xbd6fcc8a	-0.058544673
129	0x3bbbbaf4	0.0057290737
130	0x3de5d203	0.11221697
131	0x3e5d1b8a	0.21592537
132	0x3d3b97c9	0.04579905
133	0x3d8f2508	0.06989485
134	0x3da3bfa4	0.07995537
135	0x3dab339a	0.083594516
136	0xbe4d271f	-0.20034455
137	0x3db0c5da	0.08631487
138	0x3df0ee65	0.1176422
139	0xbcb7a3fd	-0.022417063
140	0x3dd7f53c	0.105448216
141	0x3d8d63c8	0.069037974
142	0xbcdf8d76	-0.027289134
143	0xbea9ce24	-0.33165085
144	0xbcd8effc	-0.026481621
145	0xbe10355c	-0.14082855
146	0x3d948db9	0.07253594
147	0x3d878e92	0.0661899
148	0x3d9a6951	0.07539619
149	0x3da3567f	0.07975482
150	0x3d536bfc	0.051616654
151	0x3d4b7e36	0.04968091
152	0x3bd7f1ec	0.0065901186
153	0xbdb1a6b2	-0.08674373
154	0x3e18ddc1	0.14928342
155	0x3db500a6	0.08838014
156	0x3dc94ebd	0.09829471
157	0x3e65fecc	0.22460479
158	0x3d971fed	0.07379136
159	0x3d0e1c77	0.034695115
160	0x3e1dd208	0.15412152
161	0xbdc71a3a	-0.09721799
162	0xbcaf4a53	-0.021397745
163	0x3dc59eee	0.09649454
164	0x3b88ebb7	0.00417849
165	0xbce962fa	-0.028489579
166	0xbcb41e23	-0.021987027
167	0x3dee3020	0.11630273
168	0x3d012fbf	0.031539675
169	0xbd400e52	-0.046888657
170	0x3e3b3a16	0.18283877
171	0x3e0a5301	0.13508226
172	0xbde3caf6	-0.11122696
173	0xbd263a3b	-0.040582877
174	0xbcb80be8	-0.022466615
175	0xbd6413bb	-0.05568288
176	0xbcb6b8e5	-0.022304961
177	0x3d221100	0.039566994
178	0x3c1c5b7a	0.009543294
179	0xbcf2e17d	-0.029648537
180	0x3d24577b	0.04012249
181	0xbd2e92e4	-0.042620555
182	0xbd09033d	-0.033450354
183	0xbc1fc2e2	-0.0097510535
184	0x3d8355c4	0.06412843
185	0x3e00d417	0.12580906
186	0x3da05285	0.07828239
187	0xbd1af661	-0.03783262
188	0xbc6d24d2	-0.014474111
189	0x3e28b8f3	0.16476803
190	0x3e2db951	0.16965224
191	0x3d91b560	0.07114673
192	0xbd5b6bfa	-0.05356977
193	0x3e7c6695	0.24648507
194	0x3db8eb4e	0.09029256
195	0x3ca7d457	0.020486994
196	0xbd7a8c62	-0.061169036
197	0x3da6d2cb	0.08145674
198	0x3d083a45	0.033258695
199	0x3d160805	0.03662874
200	0x3c4845e2	0.012223693
201	0x3dbf1f1f	0.09332108
202	0x3d260fde	0.040542476
203	0xbd3632be	-0.044481985
204	0x3e1c3be5	0.15257223
205	0x3dc0bf75	0.094115175
206	0xbd75fb7d	-0.06005429
207	0xbc9c880e	-0.019107845
208	0xbdea46d4	-0.11439291
209	0x3cbe8c92	0.023260389
210	0x3d818cad	0.0632566
211	0x3d8385b8	0.06421989
212	0x3d99d4f5	0.075113215
213	0x3da3b409	0.07993323
214	0x3d650042	0.05590845
215	0xbce23e1e	-0.02761751
216	0xbdb53603	-0.088481925
217	0xbdbbe985	-0.091754
218	0x3ca7778b	0.020442745
219	0xbdc61eda	-0.09673853
220	0x3cf76d0c	0.030203365
221	0x3d6707c7	0.0564039
222	0x3e1d2e23	0.15349631
223	0x3b2550e1	0.002522521
224	0xbc480716	-0.012208721
225	0xbcf2d6b4	-0.029643394
226	0xbcf82070	-0.030288905
227	0x3e18c861	0.14920188
228	0xbbd34168	-0.006447006
229	0xbdfca522	-0.12336184
230	0x3e7fa253	0.24964266
231	0xbd828b74	-0.06374255
232	0x3dcc4e2b	0.09975847
233	0x3df590e6	0.11990528
234	0xbd1c8e4c	-0.038221642
235	0x3db762cf	0.08954393
236	0xbbf97136	-0.0076123727
237	0x3d24170d	0.040061045
238	0x3d34a4fd	0.044102658
239	0xbdc22be4	-0.09481028
240	0x3d62a207	0.055330303
241	0xbd4b346a	-0.049610533
242	0x3e0d675a	0.13808957
243	0xba95babe	-0.0011423451
244	0x3e1ef274	0.15522176
245	0x3d243a20	0.040094495
246	0x3e6156dd	0.22005792
247	0x3cff41e5	0.03115935
248	0x3e086c63	0.13322596
249	0xbd48282c	-0.048866436
250	0x3e8772c3	0.26454744
251	0x3da72e7e	0.081631646
252	0xbc997759	-0.018733667
253	0x3dbad437	0.09122508
254	0x3d89601c	0.067077845
255	0x3d6513bd	0.055927027

layer2.bias f4 [128]
0	0xbd1348fb	-0.03595827
1	0xbd828028	-0.063721
2	0x3d8320f1	0.064027674
3	0xbdd85432	-0.10562934
4	0xbdaf9024	-0.085724145
5	0x3d52b315	0.051440317
6	0x3d8c4aa0	0.06850171
7	0x3d2641fb	0.040590268
8	0x3e54cdbe	0.2078161
9	0xbd75eba1	-0.060039166
10	0x3d969850	0.0735327
11	0x3c420cb2	0.011843847
12	0x3d9634be	0.073342785
13	0xbdf53d4a	-0.119745806
14	0xbb0b6692	-0.0021270853
15	0xbd3236cf	-0.0435093
16	0x3e8f028e	0.27931637
17	0x3c313f5e	0.010818331
18	0xbd037338	-0.032092303
19	0x3d437c54	0.04772599
20	0xbd88a9a7	-0.066729836
21	0x3d1a03bb	0.037601214
22	0xbd50b03f	-0.05094933
23	0xbbeba5b5	-0.0071913847
24	0x3a1958f2	0.00058497407
25	0x3d80a06e	0.062805995
26	0x3ca3147b	0.019907227
27	0xbcdc76f1	-0.026912184
28	0x3dd7910f	0.105257146
29	0x3e22e7ef	0.15908788
30	0xbc84c5f9	-0.016207682
31	0x3d5848d5	0.052803833
32	0xbd9cea02	-0.07661821
33	0x3e821cd0	0.25412607
34	0x3cf65c14	0.030073203
35	0x3d9b4c0f	0.075828664
36	0x3dabdae5	0.0839136
37	0xbd8dde61	-0.06927181
38	0x3c965558	0.018351242
39	0xbdf75272	-0.12076272
40	0x3d052e01	0.032514576
41	0xbc29ca3f	-0.010363161
42	0x3e04ded2	0.12975624
43	0x3d19b4d2	0.03752596
44	0x3d2136e8	0.039359003
45	0xbdd9511f	-0.10611176
46	0xbd7e566d	-0.06209414
47	0xbdc20966	-0.09474449
48	0xbd84cf5b	-0.064848624
49	0xbc5f018e	-0.0136112105
50	0x3b180938	0.0023198854
51	0x3ce66afb	0.028127184
52	0x3e4c5788	0.19955266
53	0x3cf9efcc	0.030509852
54	0x3da3556a	0.07975276
55	0x3dcc6ffa	0.09982295
56	0x3c9a0e1a	0.018805552
57	0x3d1e8742	0.03870321
58	0xbda0a69e	-0.0784428
59	0xbe0640a0	-0.1311059
60	0x3a69b1ed	0.00089147576
61	0x3bfe0b45	0.0077528083
62	0xbd066d93	-0.032819342
63	0x3c622c9e	0.013804583
64	0x3d85112b	0.06497415
65	0x3d2cc1ca	0.042177
66	0xbd4bff2c	-0.049803898
67	0xbdb92429	-0.090401
68	0xbd795338	-0.06087038
69	0xbccfbe63	-0.025359338
70	0x3c9847e7	0.018588973
71	0xbcc5826e	-0.024110045
72	0xbd012f7e	-0.031539433
73	0xbdc9f874	-0.09861842
74	0xbccc61f3	-0.02494905
75	0x3c65ab4f	0.014017894
76	0xbb3c3d41	-0.0028723034
77	0xbd3ea8f3	-0.04654784
78	0xbdea50e7	-0.11441212
79	0xbbc10c15	-0.005891333
80	0x3c791ca1	0.01520458
81	0xbd796649	-0.060888562
82	0x3d37d0e7	0.04487696
83	0xbc895ff6	-0.01676939
84	0xbdbfa530	-0.09357679
85	0x3db7b98c	0.08970937
86	0xbca6f752	-0.020381603
87	0x3dbcae8f	0.09212982
88	0xbd1827d0	-0.037147343
89	0xbd1e254e	-0.038609795
90	0x3e38fc82	0.18065074
91	0x3e59d456	0.21272406
92	0x3d4ca649	0.04996327
93	0x3e02cb2d	0.12772818
94	0x3c9440fc	0.018097393
95	0xbd10840f	-0.03528219
96	0xbdbd7f63	-0.09252813
97	0xbd41d23d	-0.04731964
98	0x3bcf13ae	0.0063194847
99	0x3c3c023e	0.011475144
100	0x3d58ec24	0.052959576
101	0xbddccb5e	-0.10780977
102	0x3d623988	0.055230647
103	0xbdbfaaea	-0.09358771
104	0xbcab26c3	-0.020892506
105	0x3d8fc3e3	0.07019784
106	0xbd3c3661	-0.045950297
107	0xbd58e058	-0.052948326
108	0x3ce5bc95	0.028044024
109	0xbd91184c	-0.070847124
110	0x3dc401cf	0.095706575
111	0xbaa4188a	-0.001251952
112	0xbcb031d8	-0.021508142
113	0x3e1ea501	0.15492631
114	0x3d5fdcb6	0.054653846
115	0xbde0bc34	-0.10973397
116	0x3dc6c6d9	0.09705896
117	0xbc8254a6	-0.015909504
118	0xbd97ec09	-0.07418067
119	0xbcea62ea	-0.028611619
120	0x3e603dd2	0.21898583
121	0x3ccf4e97	0.02530603
122	0xbd245b39	-0.04012606
123	0x3cb38575	0.021914223
124	0xbde83a28	-0.113392174
125	0xbd8e6e50	-0.06954634
126	0x3a479571	0.0007613516
127	0x3d211b8e	0.03933292

layer3.weight f4 [4, 128]
0	0xbd8280d5	-0.06372229
1	0x3bb16af0	0.0054143593
2	0xbe0910ef	-0.13385366
3	0x3d40fd58	0.047116607
4	0x3cfdb564	0.030970283
5	0xbd97cf59	-0.07412595
6	0xbd9e7073	-0.07736292
7	0xbc1df381	-0.009640575
8	0x3e24f394	0.16108543
9	0x3d2e983f	0.042625662
10	0x3d1e63af	0.038669284
11	0xbd200746	-0.039069436
12	0xbd950c78	-0.07277769
13	0xbc5eeefa	-0.013606781
14	0xbe031b99	-0.12803496
15	0xbd8bfc02	-0.06835176
16	0x3e343f9f	0.17602395
17	0x3d17f14e	0.03709536
18	0xbdd22ff4	-0.102630526
19	0xbe1b9328	-0.15192854
20	0x3b99e1b9	0.0046960977
21	0xbe01cd7e	-0.12676045
22	0xbd250c1d	-0.040294755
23	0xbddf906c	-0.10916218
24	0xbd570f5b	-0.05250488
25	0xbc49d6ac	-0.012319248
26	0xbe2d688a	-0.1693441
27	0x3d39621e	0.045259587
28	0xbd45b375	-0.048266847
29	0xbe42f089	-0.1903707
30	0xbdbb80bd	-0.09155414
31	0xbdbc622e	-0.09198414
32	0xbcb31ade	-0.021863397
33	0x3df9ba40	0.121937275
34	0xbd9460d5	-0.07245032
35	0xbd917ac4	-0.07103494
36	0x3d21b6f8	0.039481133
37	0x3d05c287	0.03265622
38	0xbd317cc4	-0.043331876
39	0xbd8d261e	-0.06892036
40	0xbddc286e	-0.10749899
41	0x3cb76095	0.022384921
42	0x3d28963d	0.041158903
43	0xbd7a3402	-0.061084755
44	0x3cc7194a	0.024304051
45	0x3a8a3861	0.0010545367
46	0x3c815e4d	0.015792036
47	0x3c2a55c7	0.0103964275
48	0xbe0bafa7	-0.13641225
49	0xbd50dc49	-0.05099133
50	0xbda8c9b6	-0.08241598
51	0xbcc5a723	-0.024127549
52	0x3dfb4ee6	0.12270908
53	0x3ce74fb8	0.028236255
54	0xbb9df723	-0.0048207208
55	0xbdd1c2d7	-0.10242241
56	0xbde93aac	-0.11388144
57	0xbda663b6	-0.08124487
58	0xbc899982	-0.016796831
59	0x3d4c03df	0.04980838
60	0xbd459cb6	-0.048245154
61	0x3c8a5e0c	0.016890548
62	0x3e1a53bd	0.15071006
63	0xbe01259f	-0.12612008
64	0x3e579152	0.21051529
65	0xbe29e263	-0.16590266
66	0xbe05d493	-0.13069372
67	0x3d53f046	0.051742814
68	0xbc93453c	-0.01797735
69	0xbcf7734b	-0.030206343
70	0x3d025658	0.031820625
71	0xbd83b25a	-0.06430502
72	0xbd6f6239	-0.05844328
73	0xbd97ed12	-0.074182644
74	0x3dde0dcf	0.108424775
75	0x3d1762be	0.036959402
76	0x3bb0c3c2	0.00539443
77	0xbe1deff3	-0.15423565
78	0x3cd0859f	0.02545434
79	0xbdb50857	-0.08839481
80	0xbe26f49d	-0.1630425
81	0xbdc3c2f3	-0.09558668
82	0xbca6b351	-0.020349177
83	0x3989e738	0.00026302948
84	0xbbf281fd	-0.0074007497
85	0x3e0dba22	0.13840535
86	0xbd6abb45	-0.0573075
87	0x3e151bc0	0.14561367
88	0xbdc39c34	-0.09551278
89	0xbd58c73f	-0.05292439
90	0x3db6e2c1	0.089299686
91	0x3dc370c7	0.09542995
92	0xbe091df4	-0.13390332
93	0x3e006ff0	0.12542701
94	0xbd8a3ab2	-0.067494765
95	0xbdbcaabf	-0.09212255
96	0x3ab94e89	0.0014137785
97	0xbcfce916	-0.030872863
98	0xbd90ee4d	-0.07076702
99	0xbdecea19	-0.11568088
100	0xbd96f1e7	-0.07370358
101	0x3d215abc	0.03939317
102	0xbde16f88	-0.11007601
103	0x3cb4acd7	0.022055073
104	0x3d1b30a0	0.03788817
105	0xbd80759b	-0.062724315
106	0xbc2a8e64	-0.010409925
107	0xbcae5334	-0.021279909
108	0xbe0f1c2f	-0.13975595
109	0xbe12f6de	-0.14351985
110	0x39556a96	0.0002035297
111	0xbcc68926	-0.02423532
112	0xbc940ac2	-0.018071536
113	0x3daabafb	0.08336445
114	0xbdcf2398	-0.10114211
115	0xbd916ed6	-0.071012184
116	0x3e2d5a5a	0.16928998
117	0xbe022bd9	-0.12712039
118	0xbdd13c90	-0.102166295
119	0x3d6d2deb	0.05790512
120	0x3eefae70	0.46812773
121	0xbd9a462f	-0.07532918
122	0xbd18258d	-0.037145186
123	0x3e19aa8d	0.15006466
124	0xbc0bec8e	-0.008540286
125	0xbd85608e	-0.06512557
126	0x3d892f78	0.06698507
127	0xbc950ce4	-0.018194623
128	0xbe0cb2c2	-0.13740066
129	0x3ca1c706	0.019748222
130	0xbd1c8a46	-0.038217805
131	0xbd7336ff	-0.05937862
132	0xbdfd0956	-0.12355296
133	0xbe512ab3	-0.20426445
134	0xbcb53f7f	-0.022125004
135	0xbcb4da13	-0.022076642
136	0x3dfe932b	0.12430414
137	0xbd50f25a	-0.051012374
138	0xbc795b05	-0.015219455
139	0xbe0c03e0	-0.13673353
140	0x3a9bce9d	0.0011887137
141	0xbcc19031	-0.023628326
142	0xbd4d96db	-0.050192695
143	0x3c975d18	0.018477008
144	0x3d923328	0.071386635
145	0xbddb8674	-0.10719004
146	0xbe0c1f52	-0.13683823
147	0x3c03801d	0.00802615
148	0xbd44bb5a	-0.048030235
149	0xbc929a17	-0.017895741
150	0x3bad8732	0.0052956576
151	0xbd4b98f4	-0.049706414
152	0xbdc2d4fc	-0.0951328
153	0xbd4e54d1	-0.050373856
154	0xbe6f652d	-0.23378439
155	0x3b70e156	0.0036755404
156	0x3c67010a	0.014099369
157	0x3d0beb2f	0.034159835
158	0x3cde58bc	0.027141921
159	0xbdb94932	-0.09047164
160	0x3cfde863	0.0309946
161	0x3e47621d	0.19471021
162	0xbe15b2bb	-0.14618962
163	0xbda2d5f2	-0.07950963
164	0xbda15f6d	-0.07879529
165	0x3c420983	0.011843088
166	0x3d47c430	0.048771083
167	0x3b4e40c1	0.0031471702
168	0x3cbc0a3f	0.022954104
169	0xbdc53e8a	-0.09631069
170	0xbd711726	-0.058859967
171	0x3d002416	0.031284414
172	0x3c668efc	0.014072176
173	0x3d3cfd15	0.046139795
174	0xbd58d8b2	-0.05294103
175	0xbc859c50	-0.016309887
176	0xbe17ab07	-0.14811336
177	0xbbb6d07a	-0.0055790516
178	0xbd325aae	-0.04354351
179	0x3cbb50f3	0.022865748
180	0xbcce8364	-0.025209136
181	0x3c6c6f67	0.014430857
182	0xbdd23440	-0.10263872
183	0xbd558f83	-0.052138817
184	0x3ca144c6	0.019686114
185	0xbda3b90d	-0.0799428
186	0xbdbae05e	-0.09124826
187	0xbd6e64c1	-0.058201555
188	0xbda8676c	-0.08222851
189	0xbcecd3fe	-0.02890968
190	0x3d5c599e	0.053796403
191	0xbe1500a1	-0.14551021
192	0x3dd6e92c	0.10493693
193	0xbbf3601a	-0.0074272277
194	0xbe239a9e	-0.1597695
195	0xbd79dc8a	-0.061001338
196	0x3c3e5823	0.011617693
197	0xbdbdf452	-0.09275116
198	0xbb6e6030	-0.003637325
199	0xbd8c4c30	-0.06850469
200	0xbc409c5d	-0.01175603
201	0x3c9db19a	0.019249726
202	0xbd975055	-0.07388369
203	0xbd00f663	-0.031484973
204	0xbe03576a	-0.12826315
205	0xbd8b46c2	-0.06800605
206	0x3c460ed2	0.012088494
207	0xbdd71d9d	-0.10503695
208	0xbd48a5bd	-0.048986185
209	0x3d6eee4b	0.058332723
210	0xbc17372d	-0.0092294635
211	0xbdd34220	-0.10315347
212	0x3d25b6f5	0.040457685
213	0x3e8538e2	0.2601996
214	0xbd3197f3	-0.0433578
215	0x3d3d68e1	0.0462426
216	0xbca875e4	-0.020564027
217	0x3d46ff70	0.048583448
218	0x3d36d9f4	0.04464145
219	0x3d43c457	0.047794666
220	0xbcc63525	-0.024195263
221	0x3dab37d3	0.08360257
222	0xbd0cd3a1	-0.034381513
223	0xbd8222b5	-0.06354276
224	0xbdc32aed	-0.09529672
225	0x3cdb69f7	0.026783926
226	0xbcaf8c18	-0.021429107
227	0xba11b942	-0.00055589166
228	0xbdaf104d	-0.08548031
229	0x3d0d9eb5	0.034575183
230	0xbd0faf47	-0.035079267
231	0xbdb1340c	-0.08652505
232	0xbdcc1fe8	-0.09967023
233	0x3c56034d	0.01306231
234	0xbd72978c	-0.059226558
235	0x3c8e0099	0.01733427
236	0xbda03290	-0.07822144
237	0xbe07f115	-0.13275559
238	0xbbbcac64	-0.0057578553
239	0xbe0b3748	-0.13595307
240	0x3b568a2d	0.0032736168
241	0x3deb4f82	0.11489774
242	0xbd5dcab9	-0.05414841
243	0x3c332bd8	0.010935746
244	0xbc0baf9b	-0.008525754
245	0xbd369a6b	-0.04458086
246	0xbe004cef	-0.12529348
247	0xbd3cf7df	-0.046134826
248	0x3e6ce7ba	0.23135272
249	0xbd683e4e	-0.056700043
250	0xbc37d3a1	-0.01121989
251	0xbd6e1599	-0.058126066
252	0x3d06dbab	0.032924335
253	0xbdecc3b3	-0.11560764
254	0xbdeefa80	-0.11668873
255	0xbd1b677a	-0.03794048

layer3.bias f4 [4]
0	0x3dbefa26	0.09325056
1	0x3c3d770d	0.011564028
2	0xbd991fc0	-0.07476759
3	0x3e0a7b27	0.13523541

exp_avg f4 [128, 39]
0	0xb5522f07	-7.829953e-07
1	0xb74e3f8a	-1.2293351e-05
2	0x37bbbae6	2.2379169e-05
3	0xb572bc2d	-9.0425857e-07
4	0xb7300720	-1.0492076e-05
5	0x37ab17b3	2.0395824e-05
6	0x3723f218	9.771924e-06
7	0x369c2fbb	4.654719e-06
8	0x362af48f	2.5474326e-06
9	0xb61c9a64	-2.3335679e-06
10	0xb758cf2a	-1.2922837e-05
11	0x38014cda	3.082757e-05
12	0x378449f8	1.577007e-05
13	0xb3d3cfd3	-9.863256e-08
14	0xb7177222	-9.026875e-06
15	0xb697eeee	-4.5279658e-06
16	0xb6913d88	-4.3285e-06
17	0x3786a478	1.6050632e-05
18	0x37bb8c22	2.2357392e-05
19	0xb57c04e9	-9.388446e-07
20	0xb7c70ef3	-2.372961e-05
21	0x369a931f	4.606685e-06
22	0xb457b582	-2.0089468e-07
23	0x37396086	1.1049333e-05
24	0xb765ede4	-1.3704852e-05
25	0xb6cbfd4d	-6.0793595e-06
26	0x38044ff7	3.1545726e-05
27	0xb60bb875	-2.0819982e-06
28	0x37a3441f	1.9462836e-05
29	0xb6d07a90	-6.213151e-06
30	0x37af2714	2.0879823e-05
31	0x371007aa	8.584853e-06
32	0x37a83db4	2.0055893e-05
33	0xb7a06a02	-1.912285e-05
34	0x370a8339	8.255994e-06
35	0x373ccb4a	1.1253005e-05
36	0x36e1731c	6.718923e-06
37	0x3787323c	1.6116646e-05
38	0xb6cfc41c	-6.191911e-06
39	0x38094cae	3.273476e-05
40	0xb7cc242d	-2.433554e-05
41	0x37132fda	8.773024e-06
42	0x37fdafaa	3.024175e-05
43	0xb79546b8	-1.7795115e-05
44	0x3705f540	7.9845195e-06
45	0xb73d2bf1	-1.1275509e-05
46	0xb7967810	-1.7937302e-05
47	0xb785b926	-1.5941052e-05
48	0x38467a50	4.732079e-05
49	0xb764c5b5	-1.3635891e-05
50	0x374f86eb	1.23695745e-05
51	0x36ae5cfb	5.1964284e-06
52	0xb7ac49eb	-2.0538419e-05
53	0xb7409823	-1.1479514e-05
54	0x37e914c7	2.778544e-05
55	0x37ae919b	2.081022e-05
56	0x376243b6	1.3486415e-05
57	0x38094ad6	3.273304e-05
58	0x358542ee	9.928751e-07
59	0xb6974237	-4.507859e-06
60	0xb80cce04	-3.3570468e-05
61	0xb6b6224f	-5.4280167e-06
62	0x373f05b5	1.1385816e-05
63	0xb79f1efa	-1.8968702e-05
64	0xb7951fca	-1.7776987e-05
65	0x374e2eb2	1.2289429e-05
66	0xb73717ac	-1.09131615e-05
67	0x35863aa8	1.0000849e-06
68	0xb7814f7f	-1.5415017e-05
69	0x379d7e82	1.8774768e-05
70	0x379f7475	1.9008507e-05
71	0x3695d24b	4.4650274e-06
72	0xb74be1ca	-1.21523135e-05
73	0x36bbbe28	5.5951714e-06
74	0x37aa7067	2.031792e-05
75	0xb5d96614	-1.6197469e-06
76	0x371237ee	8.7153e-06
77	0x3608c752	2.03816e-06
78	0xb86bf17e	-5.6253273e-05
79	0x382052cf	3.8224094e-05
80	0x36540142	3.1591194e-06
81	0xb85ce156	-5.2661948e-05
82	0x3819c9b8	3.6665908e-05
83	0x368b661c	4.15441e-06
84	0xb791e07b	-1.7389879e-05
85	0xb79311f6	-1.753213e-05
86	0xb7a001b4	-1.907428e-05
87	0xb8b451ee	-8.5983294e-05
88	0x3886c856	6.4269334e-05
89	0x37597bad	1.2963003e-05
90	0xb681aed8	-3.864854e-06
91	0xb6bdbea8	-5.6548342e-06
92	0xb729f637	-1.0130511e-05
93	0xb88a2b23	-6.5883876e-05
94	0x388c9d94	6.7050714e-05
95	0x381fd66c	3.810825e-05
96	0x37fbc7fb	3.0014655e-05
97	0x374de690	1.2272634e-05
98	0x372a31dc	1.0144398e-05
99	0x380bb50d	3.33088e-05
100	0xb763693b	-1.3554755e-05
101	0x3774fcfd	1.4602437e-05
102	0x36ed2745	7.067722e-06
103	0xb7c6f5c8	-2.371789e-05
104	0x37a6ae16	1.9869807e-05
105	0x38b544d4	8.643573e-05
106	0xb77971f9	-1.4868093e-05
107	0xb83364c1	-4.277076e-05
108	0x373e5dc4	1.1346714e-05
109	0x37a440a4	1.9580424e-05
110	0xb82784ac	-3.9939463e-05
111	0xb81e874a	-3.7796133e-05
112	0xb7181c6f	-9.066526e-06
113	0xb84e085e	-4.912202e-05
114	0x363da014	2.8256372e-06
115	0x37a6bb3a	1.9875926e-05
116	0x37bea89d	2.2728282e-05
117	0xb7f1fc0c	-2.8846807e-05
118	0xb7ff718a	-3.045124e-05
119	0x387b000d	5.984311e-05
120	0xb7ed6f07	-2.8304303e-05
121	0xb7d0243f	-2.481241e-05
122	0x38665ac1	5.4920794e-05
123	0x38a62142	7.9216916e-05
124	0x3892fcd2	7.008914e-05
125	0x38875540	6.453181e-05
126	0xb8605df4	-5.3493262e-05
127	0xb7b90510	-2.2056076e-05
128	0x38af5fcd	8.3624946e-05
129	0x3889c208	6.56881e-05
130	0x38044463	3.1534943e-05
131	0x37879355	1.6161861e-05
132	0xb8b20664	-8.488892e-05
133	0x385637c9	5.107353e-05
134	0x37fe1923	3.0290865e-05
135	0x37a3f974	1.9547275e-05
136	0xb888fc2a	-6.5319546e-05
137	0xb88513ff	-6.345659e-05
138	0xb81d7a68	-3.7545717e-05
139	0xb7d02d9b	-2.4816769e-05
140	0xb8150d7f	-3.5536938e-05
141	0xb88eba40	-6.8057794e-05
142	0x385ebf95	5.310735e-05
143	0x38a2425c	7.737122e-05
144	0xb6d98066	-6.4820515e-06
145	0x37abaec4	2.046617e-05
146	0xb84391e3	-4.662749e-05
147	0x389c11ac	7.441951e-05
148	0x37596922	1.2958686e-05
149	0xb645c6f6	-2.9471098e-06
150	0xb7641309	-1.3594291e-05
151	0xb66cf2c4	-3.5308049e-06
152	0xb601b1d6	-1.9326012e-06
153	0x388fd75d	6.858886e-05
154	0x37d83bec	2.577711e-05
155	0xb7cde2c3	-2.4543499e-05
156	0xb7c17940	-2.3063854e-05
157	0xb76dc97d	-1.41732135e-05
158	0x3827c4ce	3.999919e-05
159	0xb7ba65a7	-2.2220263e-05
160	0xb75768e7	-1.2839423e-05
161	0x38192f1a	3.652191e-05
162	0x38674cf5	5.5146364e-05
163	0x383b68f1	4.468201e-05
164	0x3836b0b6	4.3556756e-05
165	0xb827216f	-3.984704e-05
166	0xb798ae96	-1.820111e-05
167	0x386543b2	5.46609e-05
168	0x38491ebd	4.795076e-05
169	0x375ee7cc	1.3286201e-05
170	0x371a7367	9.2059845e-06
171	0xb85eb0cc	-5.309358e-05
172	0x35459b02	7.3613785e-07
173	0x37a8df45	2.0131129e-05
174	0x37d9e1f0	2.5973626e-05
175	0xb80dc18c	-3.3797274e-05
176	0xb8354084	-4.3213848e-05
177	0xb786ac6c	-1.6054335e-05
178	0xb5b6b1d6	-1.3611814e-06
179	0xb6f666de	-7.3433466e-06
180	0xb80eeef5	-3.4077984e-05
181	0x3808caf9	3.261396e-05
182	0x37a34d02	1.9466974e-05
183	0x3846e7a8	4.7422625e-05
184	0xb749d0e2	-1.2029168e-05
185	0xb79ec19b	-1.8925222e-05
186	0x378843a6	1.6243965e-05
187	0x36e9552a	6.9538555e-06
188	0xb7afae9e	-2.0942938e-05
189	0xb635fc88	-2.7118094e-06
190	0xb70dcd4b	-8.452053e-06
191	0xb6187561	-2.2718089e-06
192	0x353e5e57	7.09178e-07
193	0x36c8c9d4	5.9839604e-06
194	0xb6a843e9	-5.014696e-06
195	0xb6fa88a8	-7.4664895e-06
196	0xb7819fa5	-1.5452339e-05
197	0x37f6e660	2.9432762e-05
198	0xb6db5277	-6.536309e-06
199	0xb71ef1aa	-9.473801e-06
200	0x37e17812	2.6878002e-05
201	0x345ff4e7	2.0857588e-07
202	0xb601eeff	-1.9361612e-06
203	0xb726057f	-9.895651e-06
204	0xb7125ad9	-8.72343e-06
205	0xb6b66e50	-5.4368647e-06
206	0x382b4d4c	4.0841565e-05
207	0x372062d0	9.55975e-06
208	0xb7123604	-8.714855e-06
209	0xb7c7fdef	-2.3840896e-05
210	0xb5a7968e	-1.2486287e-06
211	0x37df39b6	2.6610545e-05
212	0x37bb5fcd	2.2336748e-05
213	0x37cf0527	2.4678722e-05
214	0xb7a031ba	-1.9096642e-05
215	0xb7f97cb6	-2.9741186e-05
216	0x370ba5fc	8.323692e-06
217	0x36cd20ff	6.1133173e-06
218	0x378653d0	1.6013073e-05
219	0xb69bc35e	-4.6421037e-06
220	0x37ca8935	2.4144168e-05
221	0x385d1b88	5.2716146e-05
222	0x37748934	1.4575478e-05
223	0xb621a907	-2.4089256e-06
224	0xb7491ef8	-1.1987744e-05
225	0x37bc1ef6	2.2425764e-05
226	0x33c4f8fc	9.172251e-08
227	0x36e58d39	6.8411723e-06
228	0xb6c4fef8	-5.8709375e-06
229	0x3610e0a2	2.1588426e-06
230	0xb7ac7853	-2.0560028e-05
231	0x375263e3	1.2540232e-05
232	0x374c1cb8	1.2166034e-05
233	0x37171475	9.005064e-06
234	0x35968ce5	1.1216877e-06
235	0xb7fa22c4	-2.9818511e-05
236	0xb6f64cc6	-7.340309e-06
237	0x35adab84	1.2939422e-06
238	0xb7cc538a	-2.4357596e-05
239	0xb6f9f390	-7.4491327e-06
240	0x37db4428	2.6138572e-05
241	0x374edb91	1.2329679e-05
242	0x37ddcf5b	2.644181e-05
243	0x365be1b7	3.2764926e-06
244	0xb7c0495a	-2.292234e-05
245	0xb7780547	-1.4783181e-05
246	0x37b5218f	2.1592508e-05
247	0xb78f7bdd	-1.7104607e-05
248	0x37b7cf8f	2.1911952e-05
249	0x36ece14a	7.059575e-06
250	0x37b4f749	2.1572823e-05
251	0xb7c2920d	-2.3194612e-05
252	0x3703e583	7.861646e-06
253	0xb7022074	-7.75616e-06
254	0x36e6f4be	6.883026e-06
255	0x370dad37	8.444585e-06

exp_avg_sq f4 [128, 39]
0	0x3250110a	1.2111068e-08
1	0x32bf1808	2.2246255e-08
2	0x33216b72	3.7583455e-08
3	0x322bdd4b	1.0003826e-08
4	0x329d6395	1.832249e-08
5	0x32f1884a	2.811807e-08
6	0x339712fe	7.03494e-08
7	0x337dd873	5.9103012e-08
8	0x3358447a	5.0353698e-08
9	0x32e758db	2.6932346e-08
10	0x333f0a3f	4.447997e-08
11	0x334a6bfd	4.7130005e-08
12	0x334626aa	4.6135632e-08
13	0x3286e093	1.5701778e-08
14	0x3290f568	1.6875404e-08
15	0x32ef29d8	2.784229e-08
16	0x3314e911	3.4670908e-08
17	0x32ca6c81	2.3565237e-08
18	0x32aa4100	1.9820163e-08
19	0x328340bd	1.5279847e-08
20	0x331665d2	3.50172e-08
21	0x324de473	1.1984514e-08
22	0x328935b1	1.5973315e-08
23	0x3285c381	1.5572143e-08
24	0x32192172	8.913377e-09
25	0x3284a993	1.5443936e-08
26	0x32aebc6c	2.034195e-08
27	0x31554ece	3.1040375e-09
28	0x323c2f5d	1.0953809e-08
29	0x324d255e	1.1941067e-08
30	0x31ee3e40	6.9337887e-09
31	0x31bb41e4	5.449907e-09
32	0x31fc86bf	7.349484e-09
33	0x311e5f66	2.3046254e-09
34	0x310eab30	2.0761028e-09
35	0x30e7e6a5	1.6873015e-09
36	0x3152a7da	3.0654435e-09
37	0x3130f9e7	2.5753424e-09
38	0x3102c67e	1.903032e-09
39	0x3234cf4a	1.0524511e-08
40	0x32b62bc4	2.120749e-08
41	0x31ae9fa2	5.0822146e-09
42	0x32198cf0	8.937818e-09
43	0x324f17d0	1.20544e-08
44	0x31887cac	3.9722945e-09
45	0x330096e7	2.9939567e-08
46	0x32a93efe	1.9702835e-08
47	0x331c7baa	3.6434052e-08
48	0x32c251ac	2.2621713e-08
49	0x32593e8b	1.2645283e-08
50	0x3246eba7	1.1578698e-08
51	0x324694e8	1.1558974e-08
52	0x31e350b6	6.6157453e-09
53	0x32e59373	2.672616e-08
54	0x322ef6e8	1.0184273e-08
55	0x31c724ef	5.795861e-09
56	0x32d9eb12	2.5369022e-08
57	0x3268a36b	1.3541334e-08
58	0x31a10b98	4.6870348e-09
59	0x321f3428	9.266877e-09
60	0x32808d99	1.4965552e-08
61	0x310cbf45	2.0481405e-09
62	0x32a783f5	1.9501366e-08
63	0x314abb1f	2.9501235e-09
64	0x31635cef	3.3085674e-09
65	0x321cf2fb	9.1356425e-09
66	0x313cccb8	2.747397e-09
67	0x30976a61	1.1016931e-09
68	0x32756c73	1.4285535e-08
69	0x320d81a4	8.236757e-09
70	0x310141b3	1.8809316e-09
71	0x31bd9a10	5.518139e-09
72	0x30a7aae8	1.2199424e-09
73	0x30165dc3	5.4702926e-10
74	0x31964413	4.3733137e-09
75	0x30c563d6	1.4362012e-09
76	0x3029ee1f	6.182023e-10
77	0x312abde0	2.4846187e-09
78	0x33068abf	3.1325495e-08
79	0x3371f03b	5.6330673e-08
80	0x33831cd1	6.1054045e-08
81	0x32e6a862	2.6852096e-08
82	0x333f9631	4.460725e-08
83	0x336040d1	5.2213014e-08
84	0x34a8f451	3.1470202e-07
85	0x347dc891	2.3635427e-07
86	0x3492f994	2.737621e-07
87	0x339d10a0	7.313906e-08
88	0x33d5bb73	9.952682e-08
89	0x3413e266	1.3772805e-07
90	0x34825fe5	2.428416e-07
91	0x3391f423	6.796497e-08
92	0x340c7a4a	1.3083005e-07
93	0x33a659a2	7.7462815e-08
94	0x336feb66	5.5860617e-08
95	0x340f7c1c	1.3363064e-07
96	0x3411abc2	1.3566662e-07
97	0x339edbe8	7.397449e-08
98	0x3326a7cf	3.8802508e-08
99	0x3355d9cf	4.9791023e-08
100	0x32eebbf0	2.779231e-08
101	0x332f3dfa	4.080173e-08
102	0x330bf14c	3.2582918e-08
103	0x33007327	2.9907053e-08
104	0x33c7ae2b	9.2983406e-08
105	0x32d02e37	2.4235403e-08
106	0x32837891	1.5305234e-08
107	0x332b2b1c	3.9853248e-08
108	0x3309dcd5	3.2098644e-08
109	0x32b8a012	2.149321e-08
110	0x32a21efd	1.8873374e-08
111	0x3257a754	1.2552693e-08
112	0x32319277	1.0336058e-08
113	0x31fa7aa0	7.2898985e-09
114	0x325eaddb	1.2961631e-08
115	0x31c9d3f3	5.8739658e-09
116	0x32bf12c4	2.224386e-08
117	0x31b57e97	5.282185e-09
118	0x328db9aa	1.649899e-08
119	0x331ea3ab	3.6936097e-08
120	0x31a901a8	4.9187356e-09
121	0x3262e06b	1.3205958e-08
122	0x32fc5a6b	2.9377778e-08
123	0x33a9a083	7.898873e-08
124	0x33729185	5.6477365e-08
125	0x335e5861	5.1768783e-08
126	0x328a590f	1.6105814e-08
127	0x32f23e0d	2.8200725e-08
128	0x3380e0f8	6.001386e-08
129	0x337df328	5.9127302e-08
130	0x32462696	1.153389e-08
131	0x320047f4	7.466941e-09
132	0x3303696c	3.0596695e-08
133	0x329b9894	1.811376e-08
134	0x31f94913	7.2551614e-09
135	0x32b91c32	2.1549656e-08
136	0x32e8c36a	2.7097219e-08
137	0x333b3772	4.3589758e-08
138	0x3284e773	1.5472073e-08
139	0x327103bf	1.4028898e-08
140	0x320e8cac	8.297473e-09
141	0x329867a6	1.7742263e-08
142	0x31e79f5b	6.7411015e-09
143	0x32acb123	2.0103988e-08
144	0x31e1b8d5	6.569375e-09
145	0x31e4a8d1	6.6548655e-09
146	0x32953d60	1.7373793e-08
147	0x3259da0d	1.2680641e-08
148	0x318b85ee	4.0606585e-09
149	0x314e6b27	3.0037854e-09
150	0x31a4b922	4.7940754e-09
151	0x318d14c8	4.1060026e-09
152	0x31373ada	2.6663458e-09
153	0x3265dbe0	1.3379548e-08
154	0x318b86ec	4.0607713e-09
155	0x31e0ab3d	6.5387256e-09
156	0x312eba2b	2.5426157e-09
157	0x31f7e615	7.2148034e-09
158	0x31cc2cab	5.9422596e-09
159	0x310b8071	2.0300173e-09
160	0x318e1ff6	4.1363775e-09
161	0x318ff644	4.189845e-09
162	0x32143a71	8.628022e-09
163	0x31c0b29b	5.6082405e-09
164	0x31cab89b	5.899961e-09
165	0x31ad5f0f	5.0457696e-09
166	0x31ea450f	6.8181474e-09
167	0x31da9fab	6.362787e-09
168	0x31c2802b	5.660714e-09
169	0x307ef225	9.274877e-10
170	0x30f6dbe8	1.7961357e-09
171	0x31e896bd	6.7692256e-09
172	0x30caa669	1.4744731e-09
173	0x30d22364	1.528957e-09
174	0x314cf60f	2.9825775e-09
175	0x31c45b59	5.714736e-09
176	0x31817599	3.7677634e-09
177	0x31053e00	1.938929e-09
178	0x30bd80cc	1.3788166e-09
179	0x31370992	2.6635445e-09
180	0x313a4970	2.7108307e-09
181	0x3154f93a	3.099173e-09
182	0x30ebae5b	1.7148055e-09
183	0x310834f1	1.9820698e-09
184	0x307128ea	8.773343e-10
185	0x309a998a	1.1248613e-09
186	0x30dc8975	1.6046174e-09
187	0x3057676d	7.836352e-10
188	0x30d2256d	1.5290148e-09
189	0x305fd98c	8.143608e-10
190	0x2fe561ee	4.172444e-10
191	0x30227065	5.909498e-10
192	0x30ac642d	1.2543119e-09
193	0x3020a84b	5.844682e-10
194	0x3088dea3	9.95858e-10
195	0x318d8f03	4.1198986e-09
196	0x328184d3	1.5077978e-08
197	0x326b050b	1.3679947e-08
198	0x3133d0e2	2.6166664e-09
199	0x320e1163	8.269441e-09
200	0x32382153	1.0717787e-08
201	0x332837cf	3.9166306e-08
202	0x32fc2716	2.9354435e-08
203	0x32f6ccdf	2.8731334e-08
204	0x31a249ac	4.723196e-09
205	0x3234ac43	1.0516547e-08
206	0x32c94bad	2.3433893e-08
207	0x3311ffa2	3.399294e-08
208	0x32502c15	1.2117217e-08
209	0x31f67908	7.173302e-09
210	0x319ce074	4.565715e-09
211	0x323f7738	1.114477e-08
212	0x31f5f2bc	7.158034e-09
213	0x32c2ab80	2.2662562e-08
214	0x31b20ccb	5.181936e-09
215	0x32611d2e	1.3103358e-08
216	0x315b2a55	3.1892757e-09
217	0x31e3b11d	6.626705e-09
218	0x31a5eafa	4.8288458e-09
219	0x31dab166	6.364803e-09
220	0x31693d1a	3.3940695e-09
221	0x31da672e	6.356365e-09
222	0x3187ebbe	3.955818e-09
223	0x31af2034	5.0968314e-09
224	0x319459df	4.317584e-09
225	0x313f24ca	2.781507e-09
226	0x31ab862a	4.9920077e-09
227	0x3175e3fe	3.578179e-09
228	0x30a04616	1.1661452e-09
229	0x311cf4b5	2.2840088e-09
230	0x30df13a4	1.6230968e-09
231	0x309628b2	1.0925503e-09
232	0x3111488f	2.1141522e-09
233	0x3142e45f	2.836053e-09
234	0x304ca042	7.444251e-10
235	0x323c9f70	1.0979292e-08
236	0x3118ebee	2.2253022e-09
237	0x301c0d92	5.6771754e-10
238	0x31c86706	5.8324785e-09
239	0x30cc318f	1.4857039e-09
240	0x324ad47f	1.18062635e-08
241	0x31ae24b8	5.068241e-09
242	0x323a22f1	1.083457e-08
243	0x30cf5fa0	1.508841e-09
244	0x318d8cea	4.11966e-09
245	0x3171c5d2	3.5182564e-09
246	0x3212d03e	8.545667e-09
247	0x3164a899	3.3274203e-09
248	0x31f5810d	7.14511e-09
249	0x31269093	2.423836e-09
250	0x31efd995	6.9805517e-09
251	0x32045577	7.702844e-09
252	0x312c5776	2.507901e-09
253	0x30940d54	1.0772205e-09
254	0x30bc2d53	1.3691682e-09
255	0x300ce4ad	5.125667e-10

exp_avg f4 [128]
0	0x36ee2bc2	7.098047e-06
1	0xb7974346	-1.803193e-05
2	0xb7bcd227	-2.2509206e-05
3	0x38b00cdd	8.39473e-05
4	0x38727d7e	5.781417e-05
5	0xb6806951	-3.8269577e-06
6	0x37e8de38	2.7760034e-05
7	0x382c23aa	4.104121e-05
8	0xb69e844b	-4.724168e-06
9	0xb8348e2a	-4.3047745e-05
10	0x38963c06	7.1637376e-05
11	0x3711e292	8.695426e-06
12	0xb6c308c2	-5.8124724e-06
13	0x3766226f	1.37170855e-05
14	0xb89be140	-7.432932e-05
15	0xb846a847	-4.73636e-05
16	0x355f216e	8.312262e-07
17	0xb5cd3c68	-1.5291271e-06
18	0x38566521	5.111576e-05
19	0xb796f41c	-1.7995066e-05
20	0x371d9290	9.3920535e-06
21	0x38be4d52	9.074308e-05
22	0xb8cd23e6	-9.781848e-05
23	0xb7fa19d6	-2.9814353e-05
24	0xb70c900a	-8.378187e-06
25	0xb8c9271e	-9.591713e-05
26	0x38fc9c56	0.00012045416
27	0x36e0bcba	6.697691e-06
28	0x390537cd	0.00012704656
29	0x36ff7101	7.6127476e-06
30	0xb812ef1f	-3.503181e-05
31	0x3892600d	6.979713e-05
32	0x3894f591	7.10293e-05
33	0x38262ef3	3.962121e-05
34	0x37d0188f	2.4806968e-05
35	0x38ae4261	8.3093306e-05
36	0xb5b8b0bf	-1.3760508e-06
37	0xb8515e70	-4.9917435e-05
38	0xb89fbd3a	-7.616957e-05
39	0x38285069	4.012921e-05
40	0x3955a15a	0.00020373371
41	0xb6a5c163	-4.9398964e-06
42	0xb73ca2aa	-1.1243546e-05
43	0x379bb096	1.855967e-05
44	0xb8ef89db	-0.00011422086
45	0xb8155b64	-3.5609482e-05
46	0xb8b25221	-8.502999e-05
47	0xb681dfeb	-3.870567e-06
48	0xb8ed88bb	-0.00011326509
49	0xb8faf18f	-0.00011965923
50	0xb733b3c9	-1.0711091e-05
51	0x375870e9	1.2900892e-05
52	0x38dc96b7	0.0001051849
53	0x380e6377	3.3948072e-05
54	0xb6f27d4d	-7.226749e-06
55	0x3899a41a	7.326175e-05
56	0xb4da8c67	-4.070782e-07
57	0x3931dd66	0.00016962513
58	0xb71dded9	-9.409815e-06
59	0x37687c2c	1.3857189e-05
60	0x37294b95	1.0090783e-05
61	0xb8249ee7	-3.9248636e-05
62	0x380c850a	3.3502503e-05
63	0x389cb0c5	7.4715856e-05
64	0x37158a76	8.91333e-06
65	0x38723854	5.7749756e-05
66	0x38a8ea95	8.0545586e-05
67	0x388e5516	6.786936e-05
68	0x37f1cbd6	2.8824357e-05
69	0xb7021341	-7.753087e-06
70	0xb74b353d	-1.2112138e-05
71	0x3818a508	3.639332e-05
72	0xb93bd446	-0.00017912788
73	0xb87ac318	-5.978634e-05
74	0x3887cca5	6.47542e-05
75	0xb7dfff35	-2.6702512e-05
76	0x376d9b14	1.4162408e-05
77	0x38e4cbb6	0.00010909831
78	0xb8046e8c	-3.1574207e-05
79	0xb7f97f86	-2.9742496e-05
80	0xb790cb79	-1.7260887e-05
81	0xb6a1c346	-4.8209067e-06
82	0x38b974f7	8.843274e-05
83	0x36ba77fe	5.557201e-06
84	0x37c54270	2.3515167e-05
85	0xb97f3d65	-0.00024341566
86	0x37fe34f8	3.0303825e-05
87	0xb752cbde	-1.2564442e-05
88	0x37ca3072	2.4102836e-05
89	0xb9035144	-0.00012523407
90	0x34c97365	3.7523128e-07
91	0x37ab5046	2.0422169e-05
92	0x37a9d763	2.0246667e-05
93	0x369994be	4.577071e-06
94	0x388cfd3e	6.72289e-05
95	0xb7070789	-8.0483815e-06
96	0xb838d9b4	-4.407177e-05
97	0x37a644d0	1.9820785e-05
98	0xb7a3d879	-1.9531917e-05
99	0xb77f078d	-1.52009425e-05
100	0x3888520c	6.500268e-05
101	0xb9133645	-0.0001403923
102	0x3902bd01	0.00012468176
103	0xb88c2511	-6.6826244e-05
104	0x3698290b	4.534731e-06
105	0xb78c5b11	-1.6731707e-05
106	0x37792baa	1.4851723e-05
107	0x3938236a	0.000175608
108	0xb8a781f6	-7.987388e-05
109	0x36f22c96	7.2173525e-06
110	0xb62fab0d	-2.6176597e-06
111	0xb7643ff3	-1.3604748e-05
112	0x383b59c9	4.4667893e-05
113	0x388a972b	6.60851e-05
114	0x38c14544	9.215859e-05
115	0xb8d19d1e	-9.995162e-05
116	0xb76dbe10	-1.4170553e-05
117	0x38cd47a3	9.788505e-05
118	0x3858b483	5.1666528e-05
119	0x384148c3	4.608255e-05
120	0x384721eb	4.7476886e-05
121	0xb732a0ac	-1.0647036e-05
122	0xb8500d8f	-4.9603692e-05
123	0xb81c01ba	-3.7194906e-05
124	0xb872aff4	-5.7861165e-05
125	0xb7ebd105	-2.8111515e-05
126	0x388cc3b9	6.7121764e-05
127	0xb6c71786	-5.9334006e-06

exp_avg_sq f4 [128]
0	0x33c04e66	8.954957e-08
1	0x3332c881	4.1626212e-08
2	0x34bc6afb	3.5095567e-07
3	0x33bd9a11	8.829023e-08
4	0x3248db17	1.16913474e-08
5	0x334dee27	4.794688e-08
6	0x326e48c3	1.3869967e-08
7	0x34acbdd7	3.2175623e-07
8	0x33f7cfe0	1.1539646e-07
9	0x339b7ef6	7.240844e-08
10	0x33cf6acc	9.658615e-08
11	0x32d50289	2.4797616e-08
12	0x3224b844	9.5879535e-09
13	0x34318b82	1.6535162e-07
14	0x33a20a6c	7.5456086e-08
15	0x344d7ba0	1.9137087e-07
16	0x32a556af	1.9247947e-08
17	0x32897675	1.6002767e-08
18	0x332d023e	4.028174e-08
19	0x32beb0b3	2.2199265e-08
20	0x3203b177	7.665554e-09
21	0x348dcd01	2.6412457e-07
22	0x344434d3	1.827314e-07
23	0x33b8fabb	8.613775e-08
24	0x338a9b8b	6.454419e-08
25	0x3419d884	1.4328003e-07
26	0x33bd5bef	8.817721e-08
27	0x3405fbba	1.2478168e-07
28	0x33c23367	9.043179e-08
29	0x334b810c	4.7381988e-08
30	0x338c5d3a	6.536216e-08
31	0x33992ed3	7.133135e-08
32	0x34832489	2.4427234e-07
33	0x33692df4	5.4291334e-08
34	0x32915335	1.691806e-08
35	0x335821c2	5.032212e-08
36	0x3315c3e0	3.4869913e-08
37	0x339d9477	7.337888e-08
38	0x333204fd	4.144839e-08
39	0x338d78d5	6.5878034e-08
40	0x34ddd07a	4.1316144e-07
41	0x341164b9	1.354082e-07
42	0x33583533	5.0339803e-08
43	0x3357c675	5.0239084e-08
44	0x346b5816	2.1918126e-07
45	0x32afda0a	2.0471834e-08
46	0x33d5850f	9.9427886e-08
47	0x324904f4	1.1700866e-08
48	0x35aa6aa7	1.2697027e-06
49	0x33917f9e	6.775302e-08
50	0x33155c41	3.477567e-08
51	0x329cc811	1.825177e-08
52	0x34c03021	3.5797805e-07
53	0x3220afed	9.353227e-09
54	0x32e46e3c	2.6592822e-08
55	0x33d24341	9.7911204e-08
56	0x335f0061	5.1921578e-08
57	0x33da3fc0	1.0163012e-07
58	0x343dcde4	1.7676899e-07
59	0x32b3bab8	2.0923252e-08
60	0x33d7b41c	1.00444794e-07
61	0x3444486f	1.8280274e-07
62	0x33768483	5.7396857e-08
63	0x34160634	1.3972095e-07
64	0x332225c1	3.77529e-08
65	0x34a35b8e	3.042773e-07
66	0x34006325	1.1956998e-07
67	0x33b5daee	8.4682924e-08
68	0x33133550	3.4274592e-08
69	0x336a2403	5.4515123e-08
70	0x31ed83c3	6.9125874e-09
71	0x33b33073	8.34415e-08
72	0x3505eabe	4.9887956e-07
73	0x330e81cf	3.318001e-08
74	0x3427e272	1.5635467e-07
75	0x32586e0c	1.25978765e-08
76	0x337d5d91	5.899125e-08
77	0x341b93d8	1.4489285e-07
78	0x32d1ef0e	2.4439512e-08
79	0x32c2c5f2	2.2674588e-08
80	0x33e1be27	1.05119675e-07
81	0x320b3d02	8.104736e-09
82	0x33e9d880	1.0889289e-07
83	0x319212bf	4.2512904e-09
84	0x35246c6c	6.1252535e-07
85	0x3611714f	2.1672638e-06
86	0x3489cedd	2.566875e-07
87	0x332a054f	3.9586038e-08
88	0x34023d16	1.2129416e-07
89	0x33f6d57a	1.1494099e-07
90	0x343ec3f6	1.7766419e-07
91	0x3409b57c	1.2825143e-07
92	0x34200978	1.4904606e-07
93	0x335658ae	4.990641e-08
94	0x33757bd9	5.7156146e-08
95	0x324114d2	1.12388125e-08
96	0x32e2d5d3	2.6407099e-08
97	0x314443a4	2.8560203e-09
98	0x329838fe	1.7721046e-08
99	0x33cab6f1	9.439635e-08
100	0x3302a89b	3.042133e-08
101	0x33ac8842	8.034159e-08
102	0x33b662b1	8.492987e-08
103	0x33690523	5.4254212e-08
104	0x32833ae5	1.527719e-08
105	0x33cee2b3	9.633859e-08
106	0x32e1bf71	2.6280505e-08
107	0x349fcac0	2.9763578e-07
108	0x341226ee	1.3611472e-07
109	0x3424cf85	1.5349185e-07
110	0x30e206be	1.644558e-09
111	0x34b64888	3.3952915e-07
112	0x32113cd6	8.453943e-09
113	0x32d36fb6	2.4614433e-08
114	0x345accd2	2.0377345e-07
115	0x35922b01	1.0890363e-06
116	0x3420f2f9	1.4989554e-07
117	0x343cf460	1.7597768e-07
118	0x34844eb9	2.4644194e-07
119	0x32f7a29d	2.8828532e-08
120	0x336f1710	5.56675e-08
121	0x33a48197	7.6604174e-08
122	0x337340c6	5.6636758e-08
123	0x33e04629	1.0443575e-07
124	0x35189a46	5.684891e-07
125	0x32cd5143	2.3902095e-08
126	0x346f9c71	2.2315523e-07
127	0x32301c3b	1.0250967e-08
